…
', instr_dim=128, log_interval=10, lr=0.0001, max_grad_norm=0.5, memory_dim=(4, 128), model='BabyAI-GoToRedBall-v0_ppo_gnn_gru_mem_seed1_20-09-29-14-09-59', no_instr=False, no_mem=False, optim_alpha=0.99, optim_eps=1e-05, patience=100, ppo_epochs=4, pretrained_model=None, procs=1, recurrence=20, reward_scale=20.0, save_interval=50, seed=1, task_id_seed=False, tb=False, val_episodes=500, val_interval=1, val_seed=1000000000, value_loss_coef=0.5)
__main__: 2020-09-29 14:09:59,996: CUDA available: True
__main__: 2020-09-29 14:09:59,996: ACModelGNN(
  (slot_memory_model): SlotMemSparse2(
    (norm1): LayerNorm((128,), eps=1e-05, elementwise_affine=True)
    (norm2): LayerNorm((128,), eps=1e-05, elementwise_affine=True)
    (mhsa): SelfAttentionLayerSparse(
      (proj): Linear(in_features=128, out_features=384, bias=False)
    )
    (mlp): MLP(
      (net): Sequential(
        (0): Linear(in_features=128, out_features=128, bias=True)
        (1): ReLU()
        (2): Linear(in_features=128, out_features=128, bias=True)
      )
    )
    (input_proj): Linear(in_features=5, out_features=128, bias=True)
    (proj): Linear(in_features=256, out_features=256, bias=True)
  )
  (actor): Sequential(
    (0): Linear(in_features=128, out_features=64, bias=True)
    (1): Tanh()
    (2): Linear(in_features=64, out_features=7, bias=True)
  )
  (critic): Sequential(
    (0): Linear(in_features=128, out_features=64, bias=True)
    (1): Tanh()
    (2): Linear(in_features=64, out_features=1, bias=True)
  )
)
__main__: 2020-09-29 14:10:07,122: U 10 | E 9 | F 000400 | FPS 0058 | D 7 | R:xsmM  0.97  0.00  0.97  0.97 | S 1.00 | F:xsmM 2.0 0.0 2.0 2.0 | H 1.492 | V 0.586 | pL -0.411 | vL 18.127 | L 8.638 | gN 15.716 | 
